…
 conv1_relu (Activation)        (None, 112, 112, 64  0           ['conv1_bn[0][0]']               
                                )                                                                 
                                                                                                  
 pool1_pad (ZeroPadding2D)      (None, 114, 114, 64  0           ['conv1_relu[0][0]']             
                                )                                                                 
                                                                                                  
 pool1_pool (MaxPooling2D)      (None, 56, 56, 64)   0           ['pool1_pad[0][0]']              
                                                                                                  
 conv2_block1_1_conv (Conv2D)   (None, 56, 56, 64)   4160        ['pool1_pool[0][0]']             
                                                                                                  
 conv2_block1_1_bn (BatchNormal  (None, 56, 56, 64)  256         ['conv2_block1_1_conv[0][0]']    
 ization)                                                                                         
                                                                                                  
 conv2_block1_1_relu (Activatio  (None, 56, 56, 64)  0           ['conv2_block1_1_bn[0][0]']      
 n)                                                                                               
                                                                                                  
 conv2_block1_2_conv (Conv2D)   (None, 56, 56, 64)   36928       ['conv2_block1_1_relu[0][0]']    
                                                                                                  
 conv2_block1_2_bn (BatchNormal  (None, 56, 56, 64)  256         ['conv2_block1_2_conv[0][0]']    
 ization)                                                                                         
                                                                                                  
 conv2_block1_2_relu (Activatio  (None, 56, 56, 64)  0           ['conv2_block1_2_bn[0][0]']      
 n)                                                                                               
                                                                                                  
 conv2_block1_0_conv (Conv2D)   (None, 56, 56, 256)  16640       ['pool1_pool[0][0]']             
                                                                                                  
 conv2_block1_3_conv (Conv2D)   (None, 56, 56, 256)  16640       ['conv2_block1_2_relu[0][0]']    
                                                                                                  
 conv2_block1_0_bn (BatchNormal  (None, 56, 56, 256)  1024       ['conv2_block1_0_conv[0][0]']    
 ization)                                                                                         
                                                                                                  
 conv2_block1_3_bn (BatchNormal  (None, 56, 56, 256)  1024       ['conv2_block1_3_conv[0][0]']    
 ization)                                                                                         
                                                                                                  
 conv2_block1_add (Add)         (None, 56, 56, 256)  0           ['conv2_block1_0_bn[0][0]',      
                                                                  'conv2_block1_3_bn[0][0]']      
                                                                                                  
 conv2_block1_out (Activation)  (None, 56, 56, 256)  0           ['conv2_block1_add[0][0]']       
                                                                                                  
 conv2_block2_1_conv (Conv2D)   (None, 56, 56, 64)   16448       ['conv2_block1_out[0][0]']       
                                                                                                  
 conv2_block2_1_bn (BatchNormal  (None, 56, 56, 64)  256         ['conv2_block2_1_conv[0][0]']    
 ization)                                                                                         
                                                                                                  
 conv2_block2_1_relu (Activatio  (None, 56, 56, 64)  0           ['conv2_block2_1_bn[0][0]']      
 n)                                                                                               
                                                                                                  
 conv2_block2_2_conv (Conv2D)   (None, 56, 56, 64)   36928       ['conv2_block2_1_relu[0][0]']    
                                                                                                  
 conv2_block2_2_bn (BatchNormal  (None, 56, 56, 64)  256         ['conv2_block2_2_conv[0][0]']    
 ization)                                                                                         
                                                                                                  
 conv2_block2_2_relu (Activatio  (None, 56, 56, 64)  0           ['conv2_block2_2_bn[0][0]']      
 n)                                                                                               
                                                                                                  
 conv2_block2_3_conv (Conv2D)   (None, 56, 56, 256)  16640       ['conv2_block2_2_relu[0][0]']    
                                                                                                  
 conv2_block2_3_bn (BatchNormal  (None, 56, 56, 256)  1024       ['conv2_block2_3_conv[0][0]']    
 ization)                                                                                         
                                                                                                  
 conv2_block2_add (Add)         (None, 56, 56, 256)  0           ['conv2_block1_out[0][0]',       
                                                                  'conv2_block2_3_bn[0][0]']      
                                                                                                  
 conv2_block2_out (Activation)  (None, 56, 56, 256)  0           ['conv2_block2_add[0][0]']       
                                                                                                  
 conv2_block3_1_conv (Conv2D)   (None, 56, 56, 64)   16448       ['conv2_block2_out[0][0]']       
                                                                                                  
 conv2_block3_1_bn (BatchNormal  (None, 56, 56, 64)  256         ['conv2_block3_1_conv[0][0]']    
 ization)                                                                                         
                                                                                                  
 conv2_block3_1_relu (Activatio  (None, 56, 56, 64)  0           ['conv2_block3_1_bn[0][0]']      
 n)                                                                                               
                                                                                                  
 conv2_block3_2_conv (Conv2D)   (None, 56, 56, 64)   36928       ['conv2_block3_1_relu[0][0]']    
                                                                                                  
 conv2_block3_2_bn (BatchNormal  (None, 56, 56, 64)  256         ['conv2_block3_2_conv[0][0]']    
 ization)                                                                                         
                                                                                                  
 conv2_block3_2_relu (Activatio  (None, 56, 56, 64)  0           ['conv2_block3_2_bn[0][0]']      
 n)                                                                                               
                                                                                                  
 conv2_block3_3_conv (Conv2D)   (None, 56, 56, 256)  16640       ['conv2_block3_2_relu[0][0]']    
                                                                                                  
 conv2_block3_3_bn (BatchNormal  (None, 56, 56, 256)  1024       ['conv2_block3_3_conv[0][0]']    
 ization)                                                                                         
                                                                                                  
 conv2_block3_add (Add)         (None, 56, 56, 256)  0           ['conv2_block2_out[0][0]',       
                                                                  'conv2_block3_3_bn[0][0]']      
                                                                                                  
 conv2_block3_out (Activation)  (None, 56, 56, 256)  0           ['conv2_block3_add[0][0]']       
                                                                                                  
 conv3_block1_1_conv (Conv2D)   (None, 28, 28, 128)  32896       ['conv2_block3_out[0][0]']       
                                                                                                  
 conv3_block1_1_bn (BatchNormal  (None, 28, 28, 128)  512        ['conv3_block1_1_conv[0][0]']    
 ization)                                                                                         
                                                                                                  
 conv3_block1_1_relu (Activatio  (None, 28, 28, 128)  0          ['conv3_block1_1_bn[0][0]']      
 n)                                                                                               
                                                                                                  
 conv3_block1_2_conv (Conv2D)   (None, 28, 28, 128)  147584      ['conv3_block1_1_relu[0][0]']    
                                                                                                  
 conv3_block1_2_bn (BatchNormal  (None, 28, 28, 128)  512        ['conv3_block1_2_conv[0][0]']    
 ization)                                                                                         
                                                                                                  
 conv3_block1_2_relu (Activatio  (None, 28, 28, 128)  0          ['conv3_block1_2_bn[0][0]']      
 n)                                                                                               
                                                                                                  
 conv3_block1_0_conv (Conv2D)   (None, 28, 28, 512)  131584      ['conv2_block3_out[0][0]']       
                                                                                                  
 conv3_block1_3_conv (Conv2D)   (None, 28, 28, 512)  66048       ['conv3_block1_2_relu[0][0]']    
                                                                                                  
 conv3_block1_0_bn (BatchNormal  (None, 28, 28, 512)  2048       ['conv3_block1_0_conv[0][0]']    
 ization)                                                                                         
                                                                                                  
 conv3_block1_3_bn (BatchNormal  (None, 28, 28, 512)  2048       ['conv3_block1_3_conv[0][0]']    
 ization)                                                                                         
                                                                                                  
 conv3_block1_add (Add)         (None, 28, 28, 512)  0           ['conv3_block1_0_bn[0][0]',      
                                                                  'conv3_block1_3_bn[0][0]']      
                                                                                                  
 conv3_block1_out (Activation)  (None, 28, 28, 512)  0           ['conv3_block1_add[0][0]']       
                                                                                                  
 conv3_block2_1_conv (Conv2D)   (None, 28, 28, 128)  65664       ['conv3_block1_out[0][0]']       
                                                                                                  
 conv3_block2_1_bn (BatchNormal  (None, 28, 28, 128)  512        ['conv3_block2_1_conv[0][0]']    
 ization)                                                                                         
                                                                                                  
 conv3_block2_1_relu (Activatio  (None, 28, 28, 128)  0          ['conv3_block2_1_bn[0][0]']      
 n)                                                                                               
                                                                                                  
 conv3_block2_2_conv (Conv2D)   (None, 28, 28, 128)  147584      ['conv3_block2_1_relu[0][0]']    
                                                                                                  
 conv3_block2_2_bn (BatchNormal  (None, 28, 28, 128)  512        ['conv3_block2_2_conv[0][0]']    
 ization)                                                                                         
                                                                                                  
 conv3_block2_2_relu (Activatio  (None, 28, 28, 128)  0          ['conv3_block2_2_bn[0][0]']      
 n)                                                                                               
                                                                                                  
 conv3_block2_3_conv (Conv2D)   (None, 28, 28, 512)  66048       ['conv3_block2_2_relu[0][0]']    
                                                                                                  
 conv3_block2_3_bn (BatchNormal  (None, 28, 28, 512)  2048       ['conv3_block2_3_conv[0][0]']    
 ization)                                                                                         
                                                                                                  
 conv3_block2_add (Add)         (None, 28, 28, 512)  0           ['conv3_block1_out[0][0]',       
                                                                  'conv3_block2_3_bn[0][0]']      
                                                                                                  
 conv3_block2_out (Activation)  (None, 28, 28, 512)  0           ['conv3_block2_add[0][0]']       
                                                                                                  
 conv3_block3_1_conv (Conv2D)   (None, 28, 28, 128)  65664       ['conv3_block2_out[0][0]']       
                                                                                                  
 conv3_block3_1_bn (BatchNormal  (None, 28, 28, 128)  512        ['conv3_block3_1_conv[0][0]']    
 ization)                                                                                         
                                                                                                  
 conv3_block3_1_relu (Activatio  (None, 28, 28, 128)  0          ['conv3_block3_1_bn[0][0]']      
 n)                                                                                               
                                                                                                  
 conv3_block3_2_conv (Conv2D)   (None, 28, 28, 128)  147584      ['conv3_block3_1_relu[0][0]']    
                                                                                                  
 conv3_block3_2_bn (BatchNormal  (None, 28, 28, 128)  512        ['conv3_block3_2_conv[0][0]']    
 ization)                                                                                         
                                                                                                  
 conv3_block3_2_relu (Activatio  (None, 28, 28, 128)  0          ['conv3_block3_2_bn[0][0]']      
 n)                                                                                               
                                                                                                  
 conv3_block3_3_conv (Conv2D)   (None, 28, 28, 512)  66048       ['conv3_block3_2_relu[0][0]']    
                                                                                                  
 conv3_block3_3_bn (BatchNormal  (None, 28, 28, 512)  2048       ['conv3_block3_3_conv[0][0]']    
 ization)                                                                                         
                                                                                                  
 conv3_block3_add (Add)         (None, 28, 28, 512)  0           ['conv3_block2_out[0][0]',       
                                                                  'conv3_block3_3_bn[0][0]']      
                                                                                                  
 conv3_block3_out (Activation)  (None, 28, 28, 512)  0           ['conv3_block3_add[0][0]']       
                                                                                                  
 conv3_block4_1_conv (Conv2D)   (None, 28, 28, 128)  65664       ['conv3_block3_out[0][0]']       
                                                                                                  
 conv3_block4_1_bn (BatchNormal  (None, 28, 28, 128)  512        ['conv3_block4_1_conv[0][0]']    
 ization)                                                                                         
                                                                                                  
 conv3_block4_1_relu (Activatio  (None, 28, 28, 128)  0          ['conv3_block4_1_bn[0][0]']      
 n)                                                                                               
                                                                                                  
 conv3_block4_2_conv (Conv2D)   (None, 28, 28, 128)  147584      ['conv3_block4_1_relu[0][0]']    
                                                                                                  
 conv3_block4_2_bn (BatchNormal  (None, 28, 28, 128)  512        ['conv3_block4_2_conv[0][0]']    
 ization)                                                                                         
                                                                                                  
 conv3_block4_2_relu (Activatio  (None, 28, 28, 128)  0          ['conv3_block4_2_bn[0][0]']      
 n)                                                                                               
                                                                                                  
 conv3_block4_3_conv (Conv2D)   (None, 28, 28, 512)  66048       ['conv3_block4_2_relu[0][0]']    
                                                                                                  
 conv3_block4_3_bn (BatchNormal  (None, 28, 28, 512)  2048       ['conv3_block4_3_conv[0][0]']    
 ization)                                                                                         
                                                                                                  
 conv3_block4_add (Add)         (None, 28, 28, 512)  0           ['conv3_block3_out[0][0]',       
                                                                  'conv3_block4_3_bn[0][0]']      
                                                                                                  
 conv3_block4_out (Activation)  (None, 28, 28, 512)  0           ['conv3_block4_add[0][0]']       
                                                                                                  
 conv4_block1_1_conv (Conv2D)   (None, 14, 14, 256)  131328      ['conv3_block4_out[0][0]']       
                                                                                                  
 conv4_block1_1_bn (BatchNormal  (None, 14, 14, 256)  1024       ['conv4_block1_1_conv[0][0]']    
 ization)                                                                                         
                                                                                                  
 conv4_block1_1_relu (Activatio  (None, 14, 14, 256)  0          ['conv4_block1_1_bn[0][0]']      
 n)                                                                                               
                                                                                                  
 conv4_block1_2_conv (Conv2D)   (None, 14, 14, 256)  590080      ['conv4_block1_1_relu[0][0]']    
                                                                                                  
 conv4_block1_2_bn (BatchNormal  (None, 14, 14, 256)  1024       ['conv4_block1_2_conv[0][0]']    
 ization)                                                                                         
                                                                                                  
 conv4_block1_2_relu (Activatio  (None, 14, 14, 256)  0          ['conv4_block1_2_bn[0][0]']      
 n)                                                                                               
                                                                                                  
 conv4_block1_0_conv (Conv2D)   (None, 14, 14, 1024  525312      ['conv3_block4_out[0][0]']       
                                )                                                                 
…
 conv4_block1_add (Add)         (None, 14, 14, 1024  0           ['conv4_block1_0_bn[0][0]',      
                                )                                 'conv4_block1_3_bn[0][0]']      
                                                                                                  
 conv4_block1_out (Activation)  (None, 14, 14, 1024  0           ['conv4_block1_add[0][0]']       
                                )                                                                 
                                                                                                  
 conv4_block2_1_conv (Conv2D)   (None, 14, 14, 256)  262400      ['conv4_block1_out[0][0]']       
                                                                                                  
 conv4_block2_1_bn (BatchNormal  (None, 14, 14, 256)  1024       ['conv4_block2_1_conv[0][0]']    
 ization)                                                                                         
                                                                                                  
 conv4_block2_1_relu (Activatio  (None, 14, 14, 256)  0          ['conv4_block2_1_bn[0][0]']      
 n)                                                                                               
                                                                                                  
 conv4_block2_2_conv (Conv2D)   (None, 14, 14, 256)  590080      ['conv4_block2_1_relu[0][0]']    
                                                                                                  
 conv4_block2_2_bn (BatchNormal  (None, 14, 14, 256)  1024       ['conv4_block2_2_conv[0][0]']    
 ization)                                                                                         
                                                                                                  
 conv4_block2_2_relu (Activatio  (None, 14, 14, 256)  0          ['conv4_block2_2_bn[0][0]']      
 n)                                                                                               
                                                                                                  
 conv4_block2_3_conv (Conv2D)   (None, 14, 14, 1024  263168      ['conv4_block2_2_relu[0][0]']    
                                )                                                                 
…
 conv4_block6_add (Add)         (None, 14, 14, 1024  0           ['conv4_block5_out[0][0]',       
                                )                                 'conv4_block6_3_bn[0][0]']      
                                                                                                  
 conv4_block6_out (Activation)  (None, 14, 14, 1024  0           ['conv4_block6_add[0][0]']       
                                )                                                                 
                                                                                                  
 conv5_block1_1_conv (Conv2D)   (None, 7, 7, 512)    524800      ['conv4_block6_out[0][0]']       
                                                                                                  
 conv5_block1_1_bn (BatchNormal  (None, 7, 7, 512)   2048        ['conv5_block1_1_conv[0][0]']    
 ization)                                                                                         
                                                                                                  
 conv5_block1_1_relu (Activatio  (None, 7, 7, 512)   0           ['conv5_block1_1_bn[0][0]']      
 n)                                                                                               
                                                                                                  
 conv5_block1_2_conv (Conv2D)   (None, 7, 7, 512)    2359808     ['conv5_block1_1_relu[0][0]']    
                                                                                                  
 conv5_block1_2_bn (BatchNormal  (None, 7, 7, 512)   2048        ['conv5_block1_2_conv[0][0]']    
 ization)                                                                                         
                                                                                                  
 conv5_block1_2_relu (Activatio  (None, 7, 7, 512)   0           ['conv5_block1_2_bn[0][0]']      
 n)                                                                                               
                                                                                                  
 conv5_block1_0_conv (Conv2D)   (None, 7, 7, 2048)   2099200     ['conv4_block6_out[0][0]']       
                                                                                                  
 conv5_block1_3_conv (Conv2D)   (None, 7, 7, 2048)   1050624     ['conv5_block1_2_relu[0][0]']    
                                                                                                  
 conv5_block1_0_bn (BatchNormal  (None, 7, 7, 2048)  8192        ['conv5_block1_0_conv[0][0]']    
 ization)                                                                                         
                                                                                                  
 conv5_block1_3_bn (BatchNormal  (None, 7, 7, 2048)  8192        ['conv5_block1_3_conv[0][0]']    
 ization)                                                                                         
                                                                                                  
 conv5_block1_add (Add)         (None, 7, 7, 2048)   0           ['conv5_block1_0_bn[0][0]',      
                                                                  'conv5_block1_3_bn[0][0]']      
                                                                                                  
 conv5_block1_out (Activation)  (None, 7, 7, 2048)   0           ['conv5_block1_add[0][0]']       
                                                                                                  
 conv5_block2_1_conv (Conv2D)   (None, 7, 7, 512)    1049088     ['conv5_block1_out[0][0]']       
                                                                                                  
 conv5_block2_1_bn (BatchNormal  (None, 7, 7, 512)   2048        ['conv5_block2_1_conv[0][0]']    
 ization)                                                                                         
                                                                                                  
 conv5_block2_1_relu (Activatio  (None, 7, 7, 512)   0           ['conv5_block2_1_bn[0][0]']      
 n)                                                                                               
                                                                                                  
 conv5_block2_2_conv (Conv2D)   (None, 7, 7, 512)    2359808     ['conv5_block2_1_relu[0][0]']    
                                                                                                  
 conv5_block2_2_bn (BatchNormal  (None, 7, 7, 512)   2048        ['conv5_block2_2_conv[0][0]']    
 ization)                                                                                         
                                                                                                  
 conv5_block2_2_relu (Activatio  (None, 7, 7, 512)   0           ['conv5_block2_2_bn[0][0]']      
 n)                                                                                               
                                                                                                  
 conv5_block2_3_conv (Conv2D)   (None, 7, 7, 2048)   1050624     ['conv5_block2_2_relu[0][0]']    
                                                                                                  
 conv5_block2_3_bn (BatchNormal  (None, 7, 7, 2048)  8192        ['conv5_block2_3_conv[0][0]']    
 ization)                                                                                         
                                                                                                  
 conv5_block2_add (Add)         (None, 7, 7, 2048)   0           ['conv5_block1_out[0][0]',       
                                                                  'conv5_block2_3_bn[0][0]']      
                                                                                                  
 conv5_block2_out (Activation)  (None, 7, 7, 2048)   0           ['conv5_block2_add[0][0]']       
                                                                                                  
 conv5_block3_1_conv (Conv2D)   (None, 7, 7, 512)    1049088     ['conv5_block2_out[0][0]']       
                                                                                                  
 conv5_block3_1_bn (BatchNormal  (None, 7, 7, 512)   2048        ['conv5_block3_1_conv[0][0]']    
 ization)                                                                                         
                                                                                                  
 conv5_block3_1_relu (Activatio  (None, 7, 7, 512)   0           ['conv5_block3_1_bn[0][0]']      
 n)                                                                                               
                                                                                                  
 conv5_block3_2_conv (Conv2D)   (None, 7, 7, 512)    2359808     ['conv5_block3_1_relu[0][0]']    
                                                                                                  
 conv5_block3_2_bn (BatchNormal  (None, 7, 7, 512)   2048        ['conv5_block3_2_conv[0][0]']    
 ization)                                                                                         
                                                                                                  
 conv5_block3_2_relu (Activatio  (None, 7, 7, 512)   0           ['conv5_block3_2_bn[0][0]']      
 n)                                                                                               
                                                                                                  
 conv5_block3_3_conv (Conv2D)   (None, 7, 7, 2048)   1050624     ['conv5_block3_2_relu[0][0]']    
                                                                                                  
 conv5_block3_3_bn (BatchNormal  (None, 7, 7, 2048)  8192        ['conv5_block3_3_conv[0][0]']    
 ization)                                                                                         
                                                                                                  
 conv5_block3_add (Add)         (None, 7, 7, 2048)   0           ['conv5_block2_out[0][0]',       
                                                                  'conv5_block3_3_bn[0][0]']      
                                                                                                  
 conv5_block3_out (Activation)  (None, 7, 7, 2048)   0           ['conv5_block3_add[0][0]']       
                                                                                                  
 flatten (Flatten)              (None, 100352)       0           ['conv5_block3_out[0][0]']       
                                                                                                  
 dense_1 (Dense)                (None, 128)          12845184    ['flatten[0][0]']                
                                                                                                  
 dense_2 (Dense)                (None, 3)            387         ['dense_1[0][0]']                
                                                                                                  
==================================================================================================
Total params: 36,433,283
Trainable params: 12,845,571
Non-trainable params: 23,587,712
__________________________________________________________________________________________________
…
 conv4_block6_add (Add)         (None, 14, 14, 1024  0           ['conv4_block5_out[0][0]',       
                                )                                 'conv4_block6_3_bn[0][0]']      
                                                                                                  
 conv4_block6_out (Activation)  (None, 14, 14, 1024  0           ['conv4_block6_add[0][0]']       
                                )                                                                 
                                                                                                  
 conv5_block1_1_conv (Conv2D)   (None, 7, 7, 512)    524800      ['conv4_block6_out[0][0]']       
                                                                                                  
 conv5_block1_1_bn (BatchNormal  (None, 7, 7, 512)   2048        ['conv5_block1_1_conv[0][0]']    
 ization)                                                                                         
                                                                                                  
 conv5_block1_1_relu (Activatio  (None, 7, 7, 512)   0           ['conv5_block1_1_bn[0][0]']      
 n)                                                                                               
                                                                                                  
 conv5_block1_2_conv (Conv2D)   (None, 7, 7, 512)    2359808     ['conv5_block1_1_relu[0][0]']    
                                                                                                  
 conv5_block1_2_bn (BatchNormal  (None, 7, 7, 512)   2048        ['conv5_block1_2_conv[0][0]']    
 ization)                                                                                         
                                                                                                  
 conv5_block1_2_relu (Activatio  (None, 7, 7, 512)   0           ['conv5_block1_2_bn[0][0]']      
 n)                                                                                               
                                                                                                  
 conv5_block1_0_conv (Conv2D)   (None, 7, 7, 2048)   2099200     ['conv4_block6_out[0][0]']       
                                                                                                  
 conv5_block1_3_conv (Conv2D)   (None, 7, 7, 2048)   1050624     ['conv5_block1_2_relu[0][0]']    
                                                                                                  
 conv5_block1_0_bn (BatchNormal  (None, 7, 7, 2048)  8192        ['conv5_block1_0_conv[0][0]']    
 ization)                                                                                         
                                                                                                  
 conv5_block1_3_bn (BatchNormal  (None, 7, 7, 2048)  8192        ['conv5_block1_3_conv[0][0]']    
 ization)                                                                                         
                                                                                                  
 conv5_block1_add (Add)         (None, 7, 7, 2048)   0           ['conv5_block1_0_bn[0][0]',      
                                                                  'conv5_block1_3_bn[0][0]']      
                                                                                                  
 conv5_block1_out (Activation)  (None, 7, 7, 2048)   0           ['conv5_block1_add[0][0]']       
                                                                                                  
 conv5_block2_1_conv (Conv2D)   (None, 7, 7, 512)    1049088     ['conv5_block1_out[0][0]']       
                                                                                                  
 conv5_block2_1_bn (BatchNormal  (None, 7, 7, 512)   2048        ['conv5_block2_1_conv[0][0]']    
 ization)                                                                                         
                                                                                                  
 conv5_block2_1_relu (Activatio  (None, 7, 7, 512)   0           ['conv5_block2_1_bn[0][0]']      
 n)                                                                                               
                                                                                                  
 conv5_block2_2_conv (Conv2D)   (None, 7, 7, 512)    2359808     ['conv5_block2_1_relu[0][0]']    
                                                                                                  
 conv5_block2_2_bn (BatchNormal  (None, 7, 7, 512)   2048        ['conv5_block2_2_conv[0][0]']    
 ization)                                                                                         
                                                                                                  
 conv5_block2_2_relu (Activatio  (None, 7, 7, 512)   0           ['conv5_block2_2_bn[0][0]']      
 n)                                                                                               
                                                                                                  
 conv5_block2_3_conv (Conv2D)   (None, 7, 7, 2048)   1050624     ['conv5_block2_2_relu[0][0]']    
                                                                                                  
 conv5_block2_3_bn (BatchNormal  (None, 7, 7, 2048)  8192        ['conv5_block2_3_conv[0][0]']    
 ization)                                                                                         
                                                                                                  
 conv5_block2_add (Add)         (None, 7, 7, 2048)   0           ['conv5_block1_out[0][0]',       
                                                                  'conv5_block2_3_bn[0][0]']      
                                                                                                  
 conv5_block2_out (Activation)  (None, 7, 7, 2048)   0           ['conv5_block2_add[0][0]']       
                                                                                                  
 conv5_block3_1_conv (Conv2D)   (None, 7, 7, 512)    1049088     ['conv5_block2_out[0][0]']       
                                                                                                  
 conv5_block3_1_bn (BatchNormal  (None, 7, 7, 512)   2048        ['conv5_block3_1_conv[0][0]']    
 ization)                                                                                         
                                                                                                  
 conv5_block3_1_relu (Activatio  (None, 7, 7, 512)   0           ['conv5_block3_1_bn[0][0]']      
 n)                                                                                               
                                                                                                  
 conv5_block3_2_conv (Conv2D)   (None, 7, 7, 512)    2359808     ['conv5_block3_1_relu[0][0]']    
                                                                                                  
 conv5_block3_2_bn (BatchNormal  (None, 7, 7, 512)   2048        ['conv5_block3_2_conv[0][0]']    
 ization)                                                                                         
                                                                                                  
 conv5_block3_2_relu (Activatio  (None, 7, 7, 512)   0           ['conv5_block3_2_bn[0][0]']      
 n)                                                                                               
                                                                                                  
 conv5_block3_3_conv (Conv2D)   (None, 7, 7, 2048)   1050624     ['conv5_block3_2_relu[0][0]']    
                                                                                                  
 conv5_block3_3_bn (BatchNormal  (None, 7, 7, 2048)  8192        ['conv5_block3_3_conv[0][0]']    
 ization)                                                                                         
                                                                                                  
 conv5_block3_add (Add)         (None, 7, 7, 2048)   0           ['conv5_block2_out[0][0]',       
                                                                  'conv5_block3_3_bn[0][0]']      
                                                                                                  
 conv5_block3_out (Activation)  (None, 7, 7, 2048)   0           ['conv5_block3_add[0][0]']       
                                                                                                  
 flatten (Flatten)              (None, 100352)       0           ['conv5_block3_out[0][0]']       
                                                                                                  
 dense (Dense)                  (None, 256)          25690368    ['flatten[0][0]']                
                                                                                                  
 dense_1 (Dense)                (None, 128)          32896       ['dense[0][0]']                  
                                                                                                  
 dense_2 (Dense)                (None, 3)            387         ['dense_1[0][0]']                
                                                                                                  
==================================================================================================
Total params: 49,311,363
Trainable params: 25,723,651
Non-trainable params: 23,587,712
__________________________________________________________________________________________________
…
